data_textile_1.pth (torch, 6670 bytes, 6 tensors)

l1.weight f4 [8, 73]
0.503783 0.233583 -0.35461235 -0.49525025 -0.13354692 0.10380227 -0.07180954 0.58981436
-0.16782762 -0.3650397 -0.43461367 0.6852781 0.1954108 0.37581375 -0.3198393 -0.35299608
0.025625745 0.35377762 0.022438832 -0.31279245 -0.295896 0.5060376 -0.23617375 -0.06675631
0.6043285 -0.5354116 0.61548537 -0.58923113 -0.5730354 0.02910007 0.51401186 -0.120189264
0.5145441 0.3298437 -0.0335504 0.523498 -0.7826967 -0.20262569 0.61360776 -0.406807
-0.54248554 0.18876393 -0.13448966 0.49686927 0.14864317 -0.44453213 0.4592414 -0.10184923
-0.34220055 -0.4764854 -0.29489866 -0.3970173 0.4427458 -0.5187477 0.69762254 0.06355693
0.59487116 0.3629121 0.41998136 -0.4978535 0.52186984 0.83480793 0.5800062 -0.17075993
-0.32049248 0.06127775 0.2676106 -0.18507396 -0.089831576 -0.19344802 0.5093087 0.3063255
0.1399416 -0.062650144 0.20203617 0.014657773 0.69715863 0.37489164 0.41837972 0.57713264
-0.66584945 -0.6819211 0.49163926 0.5930245 0.49705082 0.4473575 -0.23518911 0.6386904
0.57731384 0.60770893 0.5234706 0.84134513 -0.5411502 0.4602263 0.0060294517 0.62545854
-0.6818935 -0.36283824 0.909281 -0.43698782 0.937015 0.8594668 0.73022187 0.011586103
0.5985743 -0.6621413 -0.06226306 0.6980028 0.029549332 1.0655999 0.5657865 -0.03436982
0.5430995 0.4996062 0.43084922 0.6578425 -0.046176337 0.5249914 0.8329336 -0.335354
0.7036123 0.55990845 0.39682353 0.74559236 -0.60390943 -0.5605696 0.94434685 0.1219077
0.55350894 -0.42697594 -0.06754803 -0.12645511 0.745711 -0.6927563 -0.6819362 -0.4469059
0.27502346 0.5136977 0.46123862 0.3495226 0.726117 0.6694731 0.50626004 0.47110504
0.006510802 0.20862007 0.060827658 0.5034601 0.40292746 -0.2573261 0.57659876 0.19791274
0.07047261 -0.36327964 0.16470079 -0.28001416 -0.1604557 0.88101375 0.03699406 -0.26466742
-0.32956314 0.5606268 0.15776591 -0.084867045 0.15505825 -0.27671665 0.84956086 0.29392132
0.49722147 0.1101739 -0.085876234 0.6574043 -0.3296546 0.82501787 0.6808052 0.18615893
0.2778365 0.41936362 -0.34024543 -0.08897711 0.24068502 0.022984961 0.9883937 -0.2744669
0.005245427 0.92182815 -0.4166782 -0.07026482 0.10351129 0.68168515 0.53778464 0.51695335
-0.34549978 -0.016509147 -0.34675243 -0.3239638 0.3650825 0.18962018 -0.37075347 0.47804138
0.13144644 0.04616979 -0.59119016 -0.08772008 0.34408152 0.063561216 -0.46576378 -0.13994117
-0.45727924 -0.20793334 0.41309664 0.5191637 -0.069228776 0.092877984 -0.09330541 -0.17657407
0.5679017 0.031113036 -0.1949019 -0.028266924 -0.3515559 0.74569803 0.5899762 0.37420928
0.22420579 -0.04051086 0.37039933 0.9923638 0.56865585 0.75134116 -0.32497278 0.38238943
0.45413926 0.6230968 0.26541352 -0.3670633 0.3950979 -0.102781124 0.5212856 -0.7356477
-0.034001462 0.22149958 0.9486598 -0.20369641 0.4315874 -0.23858301 0.5616149 0.4165445
-0.0522062 0.34852394 0.32024994 0.4101223 0.14842062 -0.351378 0.0060586086 0.57423496
00000000: ecf7 003f 6230 6f3e c08f b5be 7191 fdbe
00000010: 86c0 08be 4996 d43d e110 93bd 13fe 163f
00000020: 01db 2bbe 7ce6 babe af85 debe 636e 2f3f
00000030: c519 483e a96a c03e fac1 a3be e7bb b4be
00000040: 15ed d13c 5722 b53e a4d1 b73c 5526 a0be
00000050: ae7f 97be ae8b 013f 88d7 71be 88b7 88bd
00000060: 46b5 1a3f bc10 09bf 7390 1d3f dad7 16bf
00000070: 73b2 12bf 4563 ee3c 4896 033f ca25 f6bd
00000080: 2ab9 033f 46e1 a83e 256c 09bd f703 063f
00000090: d05e 48bf 1c7d 4fbe 6615 1d3f 0249 d0be
000000a0: 55e0 0abf 554b 413e a8b7 09be a665 fe3e
000000b0: ea35 183e b799 e3be b021 eb3e 5496 d0bd
000000c0: e934 afbe e5f5 f3be f5fc 96be da45 cbbe
000000d0: 94af e23e a6cc 04bf 6497 323f 232a 823d
000000e0: 7a49 183f 9dcf b93e cc07 d73e a7e6 febe
000000f0: 4399 053f f9b5 553f 497b 143f b1db 2ebe
00000100: 9717 a4be 61fe 7a3d 4204 893e 0784 3dbe
00000110: 9ef9 b7bd 3d17 46be 0e62 023f b2d6 9c3e
00000120: da4c 0f3e b84e 80bd 92e2 4e3e 2827 703c
00000130: fd78 323f ccf1 bf3e de35 d63e f7be 133f
00000140: 1c75 2abf 6292 2ebf 24b8 fb3e 74d0 173f
00000150: 727d fe3e 0b0c e53e 6ad5 70be 3781 233f
00000160: d7ca 133f d092 1b3f 2b02 063f 6562 573f
00000170: d288 0abf c8a2 eb3e b592 c53b 0d1e 203f
00000180: 9390 2ebf efc5 b9be a4c6 683f debc dfbe
00000190: 37e0 6f3f 0406 5c3f d2ef 3a3f a3d3 3d3c
000001a0: 2a3c 193f 1882 29bf 8d07 7fbd 50b0 323f
000001b0: 7111 f23c 9465 883f 62d7 103f 5ec7 0cbd
000001c0: 9208 0b3f 62cc ff3e 4598 dc3e 5e68 283f
000001d0: 6623 3dbd d665 063f 233b 553f 85b3 abbe
000001e0: f01f 343f 2956 0f3f 742c cb3e 24df 3e3f
000001f0: cf99 1abf 7d81 0fbf b7c0 713f bfaa f93d
00000200: c3b2 0d3f 979c dabe 9f56 8abd 737d 01be
00000210: ebe6 3e3f 7a58 31bf 5f93 2ebf dad0 e4be
00000220: e0cf 8c3e b181 033f 7827 ec3e a0f4 b23e
00000230: cee2 393f 9762 2b3f 429a 013f ae34 f13e
00000240: 9158 d53b 80a0 553e 6c26 793d c3e2 003f
00000250: 824c ce3e 3fc0 83be fa9b 133f a3a9 4a3e
00000260: f253 903d caff b9be 53a7 283e 045e 8fbe
00000270: 804e 24be 1e8a 613f 1587 173d 7d82 87be
00000280: 80bc a8be 3d85 0f3f 638d 213e c6ce adbd
00000290: 97c7 1e3e cead 8dbe d27c 593f db7c 963e
000002a0: d093 fe3e dba2 e13d e1df afbd a64b 283f
000002b0: 7dc8 a8be 5f34 533f 4049 2e3f 72a0 3e3e
000002c0: 9640 8e3e d4b6 d63e a634 aebe a239 b6bd
000002d0: 2276 763e f54a bc3c 5f07 7d3f ed86 8cbe
000002e0: d5e1 ab3b eefc 6b3f d856 d5be 00e7 8fbd
000002f0: bafd d33d eb82 2e3f 41ac 093f 0e57 043f
00000300: 59e5 b0be 313e 87bc 8989 b1be 95de a5be
00000310: 18ec ba3e cb2b 423e 66d3 bdbe d7c1 f43e
00000320: e599 063e 891c 3d3d 3d58 17bf 96a6 b3bd
00000330: 742b b03e 622c 823d 9778 eebe bd4c 0fbe
00000340: 8120 eabe 7aec 54be 6781 d33e eae7 043f
00000350: d1c7 8dbd d036 be3d e816 bfbd d5cf 34be
00000360: 0162 113f c4e0 fe3c 5d94 47be 0990 e7bc
00000370: 23ff b3be 11e6 3e3f ae08 173f 5c98 bf3e
00000380: 3496 653e b7ee 25bd fba4 bd3e 8e0b 7e3f
00000390: 6e93 113f e557 403f d562 a6be 8cc8 c33e
000003a0: f184 e83e 4683 1f3f 48e4 873e b9ef bbbe
000003b0: 464a ca3e e97e d2bd f972 053f 6853 3cbf
000003c0: 1e45 0bbd c9d0 623e 5edb 723f cb95 50be
000003d0: 06f9 dc3e 1b4f 74be fec5 0f3f 5245 d53e
000003e0: 2bd6 55bd bb71 b23e cdf7 a33e 8dfb d13e
000003f0: 93fb 173e d1e7 b3be 4b87 c63b 1001 133f

l1.bias f4 [8]
0.5891345 0.6819253 0.79990274 0.7700046 0.5929385 0.48283568 1.0056541 0.8396744
00000000: 85d1 163f a892 2e3f 6dc6 4c3f 051f 453f
00000010: d1ca 173f 3d36 f73e 46b9 803f e7f4 563f

l2.weight f4 [8, 8]
0.41328803 -0.59924227 -0.44694918 1.3937817 -0.43279576 0.98483425 1.6112279 0.756091
0.17650342 0.32255298 -0.43850225 0.2318362 -0.040905684 1.495854 -0.3741791 0.36357749
0.6399138 -0.4307329 -0.5948841 1.1755487 -0.17354733 1.3901325 -0.2907139 0.5971445
0.17357923 -0.1978023 1.2457918 0.15729673 0.37703913 -0.9734832 1.0145819 0.70454895
0.60848665 1.3752233 1.2691474 -0.62215245 1.2618035 -0.047382448 -1.0688287 1.4393402
-0.111034006 0.14322002 -0.031742927 -0.09671777 0.123270296 -0.0700217 -0.14801885 -0.15779872
1.6408877 -0.90124357 -0.25686544 -0.5001263 1.1547701 0.9096791 0.8077897 0.19339111
-1.040301 1.2301155 0.7522836 1.6255862 -0.90229815 0.17003444 1.2967646 0.70174056
00000000: 7d9a d33e f167 19bf 86d6 e4be 7067 b23f
00000010: 6897 ddbe 191e 7c3f b73c ce3f 2e8f 413f
00000020: 50bd 343e aa25 a53e 5e83 e0be 7866 6d3e
00000030: b88c 27bd 2578 bf3f 6794 bfbe d426 ba3e
00000040: 64d1 233f 0689 dcbe 534a 18bf 6178 963f
00000050: 64b6 31be ddef b13f 74d8 94be 76de 183f
00000060: c1be 313e b08c 4abe 1b76 9f3f 6512 213e
00000070: 460b c13e 3236 79bf d2dd 813f 525d 343f
00000080: c8c5 1b3f 5107 b03f 6c73 a23f 6245 1fbf
00000090: c782 a13f 1914 42bd 61cf 88bf 4d3c b83f
000000a0: cc65 e3bd 45a8 123e df04 02bd f713 c6bd
000000b0: 2375 fc3d 8967 8fbd 4192 17be fd95 21be
000000c0: 9c08 d23f e6b7 66bf de83 83be 4708 00bf
000000d0: 82cf 933f bbe0 683f 4ecb 4e3f 5208 463e
000000e0: 9528 85bf 6d74 9d3f a895 403f 3513 d03f
000000f0: 03fd 66bf 821d 2e3e 62fc a53f 45a5 333f

l2.bias f4 [8]
0.62032664 -0.20772271 -0.33364606 0.5438966 0.26625493 -0.33221123 0.42318046 0.74178874
00000000: bacd 1e3f 43b5 54be a8d3 aabe cf3c 0b3f
00000010: 9152 883e 9717 aabe 1cab d83e dee5 3d3f

l3.weight f4 [11, 8]
-1.4320762 0.40682352 -1.3158951 -0.2077233 0.6721407 -0.22337706 -1.2449466 0.40193918
-1.3280666 -1.3059888 -1.6172465 0.11278128 0.8137464 0.09512323 0.1820422 -1.3342413
-0.34929392 0.3211691 0.25734568 -0.09430582 0.38218397 0.16388053 0.22225311 -0.9347346
0.56217253 -1.5006253 0.0033289106 0.5968064 -1.521952 0.15043388 -0.46580622 0.47058806
-0.017438702 -1.6238532 -1.2701668 0.6335635 -0.014783589 -0.17863683 -1.8114878 0.77546793
-0.23756075 -1.4343684 -1.0208733 0.51720846 0.43342453 0.29714775 -0.33332422 -0.1806799
0.37148178 0.37923452 0.24279623 -1.4550537 -1.4575577 0.12821612 -0.8189867 0.57874227
0.059871007 0.50162673 0.1858948 -0.42524952 0.12689237 0.08093986 -1.1723487 0.076443225
0.19495204 0.28386125 0.44038278 -1.0857389 -1.2863446 0.31738663 0.7608925 0.009026059
-0.029731037 0.7359611 0.6212316 -1.5963658 0.043599226 0.16655649 0.49670705 -1.500507
0.33372346 -0.81865007 -1.3624494 0.35904542 -0.82250285 0.10503227 1.0619878 -0.5522021
00000000: 464e b7bf 2c4b d03e 406f a8bf 6bb5 54be
00000010: 6a11 2c3f f5bc 64be 695a 9fbf f9ca cd3e
00000020: 16fe a9bf a42a a7bf ef01 cfbf dff9 e63d
00000030: af51 503f f8cf c23d 4569 3a3e 6bc8 aabf
00000040: a7d6 b2be 4770 a43e d0c2 833e 6923 c1bd
00000050: 9ead c33e 4cd0 273e 5296 633e c44a 6fbf
00000060: 8aea 0f3f 7d14 c0bf da29 5a3b 4ec8 183f
00000070: 53cf c2bf 570b 1a3e 277e eebe ebf0 f03e
00000080: 9cdb 8ebc 6cda cfbf d394 a2bf 3831 223f
00000090: de36 72bc 93ec 36be d5de e7bf 1185 463f
000000a0: 2043 73be 6299 b7bf faab 82bf c667 043f
000000b0: d2e9 dd3e c023 983e 79a9 aabe 2704 39be
000000c0: dc32 be3e 072b c23e 939f 783e 333f babf
000000d0: 4091 babf 164b 033e 1da9 51bf 7428 143f
000000e0: 4d3b 753d 9c6a 003f 355b 3e3e 4eba d9be
000000f0: 13f0 013e ccc3 a53d 860f 96bf 448e 9c3d
00000100: 82a1 473e 4356 913e da79 e13e 7ef9 8abf
00000110: f1a6 a4bf 8080 a23e dac9 423f 09e2 133c
00000120: 818e f3bc f267 3c3f 0909 1f3f b755 ccbf
00000130: 1a95 323d c98d 2a3e 6350 fe3e 9d10 c0bf
00000140: cddd aa3e 0d93 51bf be64 aebf cdd4 b73e
00000150: 8c8f 52bf 291b d73d 37ef 873f 1e5d 0dbf

l3.bias f4 [11]
0.60791963 0.022867953 -0.17372456 0.05194476 0.0072053806 -0.32614565 -0.13901864 -0.10366842
0.027091391 0.06630742 0.40993026
00000000: 9fa0 1b3f 9355 bb3c dae4 31be 07c4 543d
00000010: 1d1b ec3b 90fc a6be e75a 0ebe 1c50 d4bd
00000020: c4ee dd3c 2fcc 873d 61e2 d13e
