data.pth (torch, 5418 bytes, 6 tensors)

l1.weight f4 [8, 54]
0.5068301 0.08815696 -0.1612637 -0.3235437 -0.18623307 -0.17631836 0.05602071 -0.12315779
-0.1723906 -0.28327042 -0.14640175 -0.18383743 0.2602318 -0.13227886 0.07785264 -0.066821516
-0.20418133 -0.13433206 0.55949163 -0.35056922 0.47641602 -0.3505686 -0.350835 -0.41729245
-0.09937898 -0.32940152 0.58884704 -0.15354341 0.37678552 -0.31399867 -0.042018518 -0.06295125
0.1670126 -0.30429408 0.24585782 -0.06674681 0.40274072 -0.24614692 -0.17744848 -0.11436388
-0.08990286 0.53759766 0.10765528 -0.118606776 -0.3730545 0.00059541076 0.8378285 0.43928376
0.30249956 0.7718393 -0.20201083 0.33705845 -0.017436562 0.254271 -0.24592821 -0.38483468
0.43838847 -0.3215321 0.30651942 0.653929 0.29341874 0.42432764 0.47491288 0.40065584
-0.296449 -0.032934092 0.44307366 0.12561975 -0.17310114 -0.16403563 -0.30041036 0.67420995
0.2581172 -0.3772614 -0.07387657 -0.38815945 -0.39969027 -0.26875496 0.29630148 -0.1314333
0.36002317 -0.48909557 0.39648402 -0.5542122 0.38943845 0.06274048 -0.090276524 0.29950774
-0.22615832 -0.17066401 0.4627636 0.36237365 0.33826435 0.39161122 0.3832828 0.3407447
0.14464003 -0.19568054 0.3647498 -0.079744704 -0.62452906 -0.2804146 0.05423219 0.5308215
-0.07869031 0.39983046 0.33459467 0.3101362 -0.15602502 -0.44176042 -0.035396367 0.33429578
0.5582548 -0.20477483 0.121053375 -0.10263678 -0.20010775 0.04080586 0.58026415 0.434915
0.52614915 0.46341735 -0.15718393 0.39499673 0.5869809 -0.26950723 0.6759816 0.7054263
-0.215746 0.70540243 0.63776314 0.53606826 0.3944139 0.24670334 0.59060603 -0.4492842
0.28031582 -0.3171389 -0.15322408 0.41079557 0.091629215 0.0052010897 0.0010531615 0.44102114
0.2625335 -0.26082417 -0.00486304 0.17433171 -0.25798836 0.69594014 0.27017143 -0.17718028
0.2590452 0.0054198275 -0.5089547 -0.1925519 0.53438544 0.82162005 0.51166606 0.58496475
0.20605664 0.35757086 0.45727125 -0.12518923 0.42590857 -0.16272442 -0.15747234 0.008099498
0.27744812 0.26705673 0.58058083 0.3404023 -0.05227419 0.58176154 0.27681074 0.4958975
-0.06776211 0.32081318 -0.22561406 -0.11966723 -0.22643782 -0.27796322 0.1619992 -0.2778936
-0.27795875 -0.16739222 0.35742047 -0.018640893 -0.17246763 -0.27450097 0.030502722 -0.28735772
-0.24749957 0.5548824 0.15483867 0.46386778 -0.05201635 0.43249145 -0.0060871406 0.5470042
0.42740428 0.3915247 -0.17373586 -0.26850727 0.46759862 -0.071379274 0.5308509 -0.087058775
0.60704684 0.3543517 -0.09654058 -0.2738163 0.42396557 -0.050301887 0.22381572 0.2000153
0.3608354 0.7216831 -0.2349655 -0.15371035 -0.34186074 0.49312916 0.02840827 -0.11264175
-0.36227745 -0.33223808 -0.30324513 -0.06451391 -0.07875886 -0.15697686 0.68308246 -0.09150884
-0.30951875 0.49944195 -0.35387567 -0.5577124 0.17683932 -0.5591267 -0.62430245 -0.22658142
-0.15751024 -0.32992637 -0.32104346 0.7122119 0.10497445 0.53095186 0.24203673 -0.107053354
0.32434767 -0.40881795 0.54445 -0.18070224 -0.10988469 -0.35541475 -0.12413597 -0.056938786
00000000: 9ebf 013f a38b b43d 5022 25be 85a7 a5be
00000010: e2b3 3ebe cd8c 34be f975 653d 273a fcbd
00000020: 2987 30be d208 91be 57ea 15be e13f 3cbe
00000030: 1a3d 853e 1c74 07be 3471 9f3d b8d9 88bd
00000040: e914 51be 588e 09be d83a 0f3f cf7d b3be
00000050: cdec f33e ba7d b3be a5a0 b3be 5ba7 d5be
00000060: 3587 cbbd 51a7 a8be aebe 163f 7c3a 1dbe
00000070: 08ea c03e 6fc4 a0be 9c1b 2cbd 96ec 80bd
00000080: 5a05 2b3e 6fcc 9bbe 27c2 7b3e 8db2 88bd
00000090: 0834 ce3e f00d 7cbe 0eb5 35be 9c37 eabd
000000a0: fe1e b8bd 00a0 093f 5f7a dc3d 1ce8 f2bd
000000b0: 0001 bfbe 5715 1c3a ee7b 563f cde9 e03e
000000c0: 39e1 9a3e 4397 453f eddb 4ebe ed92 ac3e
000000d0: 1fd7 8ebc cf2f 823e 9bd4 7bbe 0d09 c5be
000000e0: 7474 e03e db9f a4be 1df0 9c3e e467 273f
000000f0: fb3a 963e 7941 d93e c827 f33e c322 cd3e
00000100: 2ac8 97be e6e5 06bd 8dda e23e 77a2 003e
00000110: 6d41 31be f5f8 27be 63cf 99be 0699 2c3f
00000120: f027 843e 6828 c1be 994c 97bd d6bc c6be
00000130: 34a4 ccbe 409a 89be d4b4 973e 7396 06be
00000140: f554 b83e bc6a fabe f4ff ca3e dae0 0dbf
00000150: 7a64 c73e 157e 803d e6e2 b8bd 1459 993e
00000160: 0c96 67be 8cc2 2ebe 5aef ec3e 0a89 b93e
00000170: fc30 ad3e 4481 c83e a53d c43e 1776 ae3e
00000180: 841c 143e 7b60 48be 7cc0 ba3e 3151 a3bd
00000190: 23e1 1fbf 8192 8fbe 9322 5e3d ebe3 073f
000001a0: 6328 a1bd 94b6 cc3e fe4f ab3e 2cca 9e3e
000001b0: 06c5 1fbe 6c2e e2be c8fb 10bd d128 ab3e
000001c0: c9e9 0e3f 7eb0 51be d5ea f73d 3b33 d2bd
000001d0: 0ce9 4cbe 0c24 273d 318c 143f 2ead de3e
000001e0: b6b1 063f 0a45 ed3e d3f4 20be 033d ca3e
000001f0: 6144 163f dafc 89be 210d 2d3f d196 343f
00000200: 85ec 5cbe 4195 343f 7244 233f c53b 093f
00000210: 9ef0 c93e cd9f 7c3e f531 173f 9408 e6be
00000220: 8e85 8f3e 0860 a2be c6e6 1cbe cc53 d23e
00000230: 19a8 bb3d e76d aa3b 3c0a 8a3a 86cd e13e
00000240: ca6a 863e bf8a 85be 235a 9fbb 0384 323e
00000250: 0d17 84be 2229 323f e953 8a3e bf6e 35be
00000260: 93a1 843e cf98 b13b db4a 02bf 532c 45be
00000270: 7ccd 083f b155 523f 8cfc 023f 40c0 153f
00000280: 8300 533e 8713 b73e 751f ea3e 9b31 00be
00000290: b010 da3e 3ba1 26be 6e40 21be c2b3 043c
000002a0: ae0d 8e3e a9bb 883e f2a0 143f 3649 ae3e
000002b0: 761d 56bd 53ee 143f 23ba 8d3e 47e6 fd3e
000002c0: dcc6 8abd a041 a43e 5f07 67be 1814 f5bd
000002d0: 51df 67be 3251 8ebe 1ee3 253e 1248 8ebe
000002e0: 9c50 8ebe de68 2bbe d1ff b63e c9b4 98bc
000002f0: 5b9b 30be 648b 8cbe d8e0 f93c 8d20 93be
00000300: 8770 7dbe c60c 0e3f 078e 1e3e 1480 ed3e
00000310: 190f 55bd 856f dd3e a376 c7bb 7808 0c3f
00000320: bcd4 da3e ed75 c83e d0e7 31be c979 89be
00000330: 1669 ef3e 4c2f 92bd d8e5 073f df4b b2bd
00000340: 6c67 1b3f 966d b53e 11b7 c5bd a631 8cbe
00000350: 0412 d93e 5a09 4ebd f32f 653e d0d0 4c3e
00000360: 6bbf b83e 39c0 383f cc9a 70be 3f66 1dbe
00000370: 5f08 afbe 6d7b fc3e 76b8 e83c b8b0 e6bd
00000380: 6e7c b9be 1c1b aabe f242 9bbe de1f 84bd
00000390: 534c a1bd 8bbe 20be 7ede 2e3f fd68 bbbd
000003a0: 3e79 9ebe dbb6 ff3e 312f b5be 3dc6 0ebf
000003b0: 5e15 353e ed22 0fbf 49d2 1fbf f604 68be
000003c0: 5d4a 21be 1cec a8be cf5f a4be 8553 363f
000003d0: d8fc d63d 76ec 073f 7ad8 773e ca3e dbbd
000003e0: e610 a63e 9650 d1be 1361 0b3f 020a 39be
000003f0: 390b e1bd ecf8 b5be 003b febd a538 69bd

l1.bias f4 [8]
0.35056838 0.67459524 0.66429216 0.27789113 0.6410422 0.13322891 0.53654003 0.25978452
00000000: b37d b33e 46b2 2c3f 0d0f 2a3f bf47 8e3e
00000010: 571b 243f 296d 083e b05a 093f 7a02 853e

l2.weight f4 [8, 8]
0.7056238 -0.68277574 -0.24184524 0.8081257 0.6893151 0.018800104 0.8818089 1.0294632
1.2198642 0.2744339 0.30749768 -0.13766953 1.3245943 -0.7657827 0.038985 -0.30876085
0.30266398 -0.23038347 -0.03485499 1.1518872 0.04594586 0.7125804 -0.062845424 1.2559284
0.112756655 0.6276137 -0.13520722 0.47767717 1.0140526 0.49545255 -0.92254627 -0.18835518
0.2649681 0.38365927 1.1715549 0.74998575 -1.0148464 0.6128171 0.6842012 0.15409371
0.27269068 1.1379838 0.31937915 0.8544278 -0.015316177 0.7979663 -1.0710633 -0.25196034
-0.83137 -0.09777999 0.54313916 -0.6447441 0.538847 -0.15062726 1.3638437 -1.0399702
0.19192493 0.07413587 1.2470591 -0.5461428 -0.96984386 -0.5887989 0.72162205 0.16196461
00000000: c3a3 343f 64ca 2ebf 47a6 77be 53e1 4e3f
00000010: f476 303f ad02 9a3c 3abe 613f 73c5 833f
00000020: 8324 9c3f 9a82 8c3e 5670 9d3e 3ef9 0cbe
00000030: 4e8c a93f 560a 44bf bcae 1f3d e715 9ebe
00000040: c6f6 9a3e a5e9 6bbe 1bc4 0ebd 0a71 933f
00000050: ba31 3c3d ab6b 363f 1ab5 80bd 43c2 a03f
00000060: f6ec e63d 4bab 203f c373 0abe 1a92 f43e
00000070: 7acc 813f f5ab fd3e fe2b 6cbf 2ee0 40be
00000080: e6a9 873e fd6e c43e 83f5 953f 11ff 3f3f
00000090: 7de6 81bf 95e1 1c3f cf27 2f3f beca 1d3e
000000a0: 1d9e 8b3e 74a9 913f aa85 a33e c8bb 5a3f
000000b0: b4f0 7abc 8547 4c3f 9a18 89bf f200 81be
000000c0: aad4 54bf e040 c8bd 2b0b 0b3f f30d 25bf
000000d0: e1f1 093f 083e 1abe 6e92 ae3f be1d 85bf
000000e0: f887 443e 8cd4 973d a29f 9f3f 04d0 0bbf
000000f0: b047 78bf 86bb 16bf 39bc 383f 0dda 253e

l2.bias f4 [8]
-0.10603474 0.79944086 -0.112295404 0.34412858 -0.1596758 0.55685955 0.67034984 0.4366099
00000000: be28 d9bd 28a8 4c3f 22fb e5bd 9f31 b03e
00000010: 0e82 23be 598e 0e3f 0c9c 2b3f 558b df3e

l3.weight f4 [7, 8]
0.25138867 -1.0756803 0.27538684 -1.959944 0.1501253 0.00315159 -0.61079806 -0.08417303
0.21777706 0.19682017 -1.2493601 -1.005312 -1.4054401 -0.9426578 0.7524747 -1.025907
-1.1150701 0.3355914 -1.6322438 1.0240377 -1.5302768 0.5375868 -0.14456034 -0.90860784
-0.9612383 -0.5063222 -1.0499238 -2.0379572 -0.10099287 -0.7454152 1.0532739 0.8130245
-1.0985907 0.17627881 -1.095329 -0.9971505 0.163684 0.10748259 -1.4367276 0.46098453
-0.81162184 -1.0029678 -0.0550512 0.029165678 0.28082496 0.6820888 -1.3384997 -1.1937872
0.7417872 0.05865044 0.5306203 -0.44167492 -0.81439525 -0.6051709 -1.1585827 -0.9099246
00000000: 04b6 803e e4af 89bf 81ff 8c3e 72df fabf
00000010: 72ba 193e e88a 4e3b 435d 1cbf e962 acbd
00000020: f300 5f3e 3a8b 493e 08eb 9fbf 10ae 80bf
00000030: 76e5 b3bf 0652 71bf 2fa2 403f ec50 83bf
00000040: 9eba 8ebf a3d2 ab3e 5ded d0bf ab13 833f
00000050: 1ce0 c3bf 4a9f 093f a007 14be 869a 68bf
00000060: b713 76bf 559e 01bf e763 86bf e46d 02c0
00000070: 5ad5 cebd 88d3 3ebf aed1 863f 6022 503f
00000080: 9f9e 8cbf 6f82 343e be33 8cbf 4145 7fbf
00000090: c79c 273e d51f dc3d b1e6 b7bf 2a06 ec3e
000000a0: 73c6 4fbf 4061 80bf 5e7d 61bd dcec ee3c
000000b0: 4ac8 8f3e 5f9d 2e3f f553 abbf 05ce 98bf
000000c0: c4e5 3d3f 723b 703d bbd6 073f 3723 e2be
000000d0: 357c 50bf 7bec 1abf 704c 94bf d2f0 68bf

l3.bias f4 [7]
-0.5645966 -0.069231026 0.2385497 0.3592178 -0.38645753 -0.32541773 0.19016638
00000000: 6789 10bf ffc8 8dbd 5f46 743e 65eb b73e
00000010: c3dd c5be 279d a6be faba 423e
